best_weights.npy (npy, 2464 bytes, 1 tensors)

array f8 [292]
000000 c8 cc 58 9d dc 60 c2 3f 27 c7 7e 2b 25 78 b3 3f
       0.1435809868140494 0.07605202018637823
000010 b5 e2 a7 fe 32 68 eb bf 72 86 a6 db fc 0d dd bf
       -0.8564696286913064 -0.4539787430786425
000020 3d 5d fa 9c 84 e1 fe bf 24 7d 38 50 42 0d df 3f
       -1.930058110423331 0.48518426736878184
000030 e6 ff 33 40 8c b9 ec 3f 69 30 cf 0e 6b 01 91 3f
       0.8976498846022849 0.016606972483529967
000040 79 43 c7 be 2e 8f f9 3f d1 52 6b 55 97 94 08 40
       1.597456689098378 3.0725542710664304
000050 52 59 70 f4 ed 40 ba bf 7e f6 80 e3 a4 a2 fa bf
       -0.10255324571366956 -1.664708031355445
000060 fe 3f 0b 8e 68 3f c3 bf ce 63 ec 0f 5f c7 fd 3f
       -0.15037257133235465 1.8611746427543383
000070 b7 5c 03 57 03 fc da bf db 8d 3a bc ca 0d f3 3f
       -0.4216316556680328 1.1908671715435648
000080 eb 29 c6 81 d1 63 df 3f f2 3a 5c 23 ab d8 b8 bf
       0.49046743081330985 -0.09705609906471205
000090 b3 3a 2f 3d 8c e0 c0 bf b8 fb 14 c6 ca e5 b5 3f
       -0.13185265529178522 0.08553759895310875
0000a0 d4 91 01 1a d2 5e f1 3f 96 bd 06 ef 7d 82 f1 3f
       1.0856495872368344 1.0943583809820203
0000b0 67 6b 4d 7c 5a db e3 3f e4 c4 fa 5a 8f c1 be bf
       0.6205265453130381 -0.12014099093609648
0000c0 08 c0 6d 75 85 77 bc 3f b7 22 42 af 22 8d df 3f
       0.11119875065719509 0.49298922648498994
0000d0 dd c3 cb 99 52 32 ea bf f1 31 31 45 0c 08 cc 3f
       -0.8186429027392667 0.21899560335658877
0000e0 13 49 ea 39 e0 67 dc bf d3 6e 97 82 f6 98 c7 3f
       -0.443840080793181 0.1843555581716517
0000f0 2f 74 7e 8d 1f 57 fd 3f ff f1 c6 3a 1e e7 c4 bf
       1.8337703253848863 -0.16330316419579557
000100 0f f4 28 de b3 76 e0 bf df a3 00 51 96 e2 fa 3f
       -0.5144900645315164 1.68031913415529
000110 99 3b b1 a6 2d e9 f2 3f 84 5c 83 d5 67 4b fc 3f
       1.1819283019465046 1.7684095707279832
000120 ea d6 e3 22 c5 4b f5 bf 3a 7c 8d 6c c2 b8 f1 3f
       -1.3309985506907034 1.1076072922076166
000130 24 1c 45 d7 0f e3 d1 bf b1 a0 bd ba 7b ff e9 3f
       -0.2794837572332105 0.8124369284896799
000140 52 82 b2 c9 08 87 b9 bf ef b7 b6 e4 bc 8c e1 3f
       -0.09971671032190813 0.5484299151482882
000150 5b 9d 1b c8 75 98 c6 bf 9c 66 bb 33 8e 3f d3 3f
       -0.1765277125443657 0.30075411846119393
000160 98 f1 5f fd 37 f5 c4 3f 07 3f 7f 7f 00 4d e3 bf
       0.1637334811383766 -0.6031496515442719
000170 34 1b d8 d4 15 a2 d5 3f e9 5f f7 27 76 ea cb bf
       0.33801790032923695 -0.21809269858817906
000180 b8 93 f0 a3 cc 59 00 40 d4 55 3a 4c 58 2f d6 3f
       2.043847351817444 0.34663970417144907
000190 4c 91 34 8f 66 1f ea bf c1 ca 12 7f ed 91 d8 3f
       -0.8163330838183724 0.38390672120582897
0001a0 b9 b7 cd 98 31 35 9d bf 0b 1d 5c 6b 2b cb e8 3f
       -0.028523230506315864 0.7748009774085473
0001b0 58 a1 0b 55 5e ed e9 3f 2b bd 0a c6 80 9e e6 bf
       0.81022564516483 -0.7068485134131256
0001c0 81 f3 54 c3 32 b8 ea 3f 45 b3 bb 1c 9c 07 ed 3f
       0.8349851431918155 0.9071789323039431
0001d0 a6 a4 83 ca 3b 55 d2 bf 0c d2 2f 23 2e 7b e3 3f
       -0.2864522435834921 0.6087866484872975
0001e0 6e 07 ac 57 a7 95 d3 3f 82 9f fd de 31 f1 dc bf
       0.3060091358348619 -0.4522213628429129
0001f0 d2 66 c3 71 a5 eb d5 bf d8 45 ad f2 78 76 ee bf
       -0.3425077067346197 -0.9519619693548362
000200 fa 8b ca 5e 70 15 e7 bf 86 84 ef 36 e5 bf cd 3f
       -0.7213670588865846 0.23241868193057175
000210 53 01 27 e8 ea f8 ed 3f 22 31 06 37 f2 9b f7 3f
       0.9366354498124941 1.475572791040641
000220 a8 71 0c c8 2f e6 f1 3f 74 2e 9e 39 f0 1a e1 bf
       1.1186979116820144 -0.5345383763646638
000230 d5 38 12 6c 79 47 f1 bf 67 42 66 6b 06 b6 fd 3f
       -1.0799497815638024 1.8569397158900303
000240 17 84 98 77 84 31 d7 bf a6 42 43 87 07 82 e2 bf
       -0.3623973052909277 -0.578372730431586
000250 a5 80 5b b9 60 68 e6 bf d0 cd d2 b1 97 b2 ba 3f
       -0.7002414341223085 0.10428760615723509
000260 53 e8 8e 1d 9d f1 e0 bf 29 f1 1d 97 61 a5 db 3f
       -0.5294938638028363 0.4319690681220601
000270 71 9c cc 37 d4 b6 d5 bf 6e 58 fe ac 37 e9 c6 bf
       -0.339283995143382 -0.17899223277044335
000280 88 18 9e db 5b 80 ef 3f 52 f6 f0 8c 74 66 d3 bf
       0.9844188012509827 -0.30312837375445156
000290 2a 25 6c f3 14 f6 c0 3f c6 8c 8f f5 22 cb b4 bf
       0.13250982175694875 -0.08122461791167543
0002a0 5b 6f ba fb 64 2b e0 bf 0b 64 f1 8b 08 8e b0 bf
       -0.5052971760337458 -0.06466725746703632
0002b0 b4 52 75 f4 28 ab ca bf 9b c2 5d f8 d4 c1 d3 bf
       -0.20834838806572054 -0.3087055612041156
0002c0 f3 ab 72 54 6c 71 e1 3f 46 24 d4 7b 94 24 66 3f
       0.5450956010221247 0.002702989585149615
0002d0 8a 18 a8 79 dc 15 c8 3f fb b1 14 99 60 32 c4 3f
       0.18816715183510652 0.15778739428186825
0002e0 aa ca 9f f1 ec 8f d2 3f f2 93 88 14 29 98 ee 3f
       0.2900345191584771 0.9560742760701244
0002f0 38 61 9c 6f e0 90 ca bf 47 e2 c8 6f 42 85 d3 bf
       -0.2075462861037154 -0.30500851551508784
000300 9a 95 b2 22 2c 70 e3 3f a8 43 6f 20 d2 f0 ee 3f
       0.6074429204642684 0.9668970712174216
000310 27 55 e7 71 db 6b 77 3f 3f 16 d6 1d a9 fe dc bf
       0.00571809502294699 -0.45304325021456643
000320 e8 c6 f7 78 d8 b0 e4 bf d8 14 41 92 ff b0 fd bf
       -0.6465875971464046 -1.8557124817901265
000330 c5 0e aa 9b be 1f e8 bf eb 9e d2 2e 1a 5a e3 3f
       -0.7538750686948893 0.604748813105258
000340 19 88 7f c2 94 e8 bb 3f 99 7a a2 dc 98 9e da bf
       0.10901765583506097 -0.41592999979358464
000350 4a 98 32 e0 a3 47 c9 bf 60 02 40 12 ce 63 ef bf
       -0.19749878356123168 -0.9809332233854313
000360 10 71 3a 31 c5 85 b0 3f 39 68 cf 66 de f7 eb 3f
       0.06454117252218716 0.8740074165355117
000370 ee 5a 6d c9 67 42 f3 3f 84 ca 1a 89 e5 48 b6 bf
       1.2037122600792673 -0.08704981419831809
000380 5c 4b 0a 23 ed a6 c6 bf f5 70 f5 bd 8e a4 f6 3f
       -0.17696918688724395 1.4151751919044362
000390 ae 42 36 47 80 c4 e9 3f 00 4c d1 49 61 c1 d6 bf
       0.8052369490488525 -0.3555529805063884
0003a0 6c d2 92 3b 61 bd c7 3f ea 00 4e 66 1c 6a e4 bf
       0.18546691330779497 -0.6379529951227856
0003b0 9f c3 51 78 5d b6 d7 3f a7 b9 fa 21 a1 c2 d2 3f
       0.3705056834215216 0.2931292373495133
0003c0 4f 96 d0 1a 94 97 a1 bf a4 74 35 f7 e7 3a ce 3f
       -0.03435957743958495 0.23617267199270942
0003d0 1c 22 c8 66 7b b6 d5 bf 89 2e ae a9 9d 45 e4 bf
       -0.3392628196457126 -0.6334980310507073
0003e0 80 26 dd a2 2d e2 de 3f 3e 95 a4 76 41 ae d3 3f
       0.4825548258273571 0.3075107248899548
0003f0 07 3d 1d 68 ed 3b c7 bf a9 5a 37 0e c2 db ea bf
       -0.18151633819295673 -0.8393259313259779
000400 3c 3d 25 4e d8 4b d8 3f 5a 26 bb 20 68 0f dc bf
       0.37962920791047217 -0.438440353359146
000410 45 a3 d4 23 24 d2 c0 bf 17 cc c9 4d 19 df e2 3f
       -0.13141299962560474 0.5897337455083996
000420 0e 2d 86 96 14 bd f9 bf 20 36 e3 37 38 fb ec 3f
       -1.6086622123573906 0.9056664554170233
000430 54 ff 66 c0 c2 f4 d6 3f b3 ce 62 22 a4 06 82 bf
       0.3586890105179823 -0.008801729487778109
000440 e7 e4 db b7 44 e3 d8 bf c9 24 4a 8c bf 7c cf 3f
       -0.3888713641641303 0.245994513989251
000450 79 57 3b 16 85 9f f4 bf 67 81 34 f3 97 e3 e4 3f
       -1.2889452808790038 0.6527824163531876
000460 c3 b0 0f 2c 08 94 f2 bf 9f 1b e7 1f 54 1c f6 3f
       -1.1611406060356309 1.3819161649896399
000470 73 49 90 fc 51 d8 ac bf 1e 18 93 8a 60 90 ce 3f
       -0.056337892609138594 0.23878103987061733
000480 09 2f 4c ce 63 6f c4 bf 99 62 d4 16 47 21 d6 bf
       -0.1596493489563431 -0.3457811091371155
000490 bd 12 67 5d b8 51 fb bf 56 87 b4 ac 50 8a d8 bf
       -1.707451214651129 -0.3834420858930704
0004a0 25 e5 97 a3 69 09 c3 bf d9 26 d6 ad 4e c5 ed bf
       -0.14872475135761323 -0.9303353686566097
0004b0 2b bc ea c6 03 28 e3 bf fd 07 91 aa 5c 40 c2 bf
       -0.5986346135231363 -0.14258917168086774
0004c0 b2 d8 49 2d 0e 25 e5 bf da 0d 71 01 e3 b4 ec 3f
       -0.6607733616390503 0.8970809009701342
0004d0 68 8a 47 c9 c0 3c c5 bf 07 27 78 3d 16 69 f3 bf
       -0.16591653659914418 -1.2131559754511174
0004e0 76 54 a2 66 69 36 f8 3f 79 75 e0 8e 74 1f e9 bf
       1.5132841118950444 -0.785089758926616
0004f0 33 6d 1b d3 61 53 de bf e1 8e 5c 47 9e 84 de bf
       -0.47383924117976334 -0.4768443772211253
000500 5a 4d a7 7f aa b3 d4 bf f5 9c e6 b9 a4 a4 f2 3f
       -0.32346594301380593 1.1651961576224583
000510 7b 74 bc b3 4c da c5 3f 56 1e 25 15 c3 ca da 3f
       0.17072447563342394 0.4186256128782352
000520 e6 d0 9c ae b1 8c e8 bf b6 cb d7 02 3d 2b a3 bf
       -0.7671745691682446 -0.03743925723747259
000530 59 6b cd 78 1a 20 ba 3f d6 8b 26 0c 46 a3 e1 bf
       0.10205235909726919 -0.5511808621707768
000540 09 6f 12 0d b2 b8 ea bf b2 5a 2f 9b 88 d5 d3 3f
       -0.8350458388626701 0.30990805773528074
000550 95 29 72 56 c3 6f d5 bf f8 2a ca bf a2 69 d4 bf
       -0.3349464744757367 -0.31894749383415855
000560 fc 9e 71 dc 7e 4d e1 bf 2f 3b 3d c9 5e 0e cf bf
       -0.5407099061530682 -0.2426260454762654
000570 ac 5e 10 91 1f 17 be 3f a1 18 36 8b ca a9 e6 bf
       0.11754033366775712 -0.7082264632197345
000580 9f 6b 12 1a c5 34 e2 3f 8a 7f 8b a3 4d 4e ea bf
       0.5689416417329659 -0.822058505462324
000590 b6 c0 67 8c 65 b0 b5 bf 14 ab 40 2a 36 4a 99 3f
       -0.08472284963477503 0.02469715721978634
0005a0 29 0c b9 fa 0d 7e f7 3f 65 3e ff 2e 23 22 eb 3f
       1.4682750505314834 0.8479171674643565
0005b0 a7 5f ca 85 ef bf db 3f dc 9e c7 ff 4c e5 b5 3f
       0.4335898214862887 0.08553010220168339
0005c0 76 2a ff a5 44 ed 00 c0 0b b4 6f 03 53 54 d0 bf
       -2.1158535927291338 -0.25514674506740737
0005d0 f0 b9 11 3b 47 7a e1 3f 8b 23 c8 ea 8d ea d1 3f
       0.5461765435882722 0.27994106223973664
0005e0 39 8f 0c 83 d7 74 e4 bf 4e b0 8e e6 fe 7e be 3f
       -0.6392629203369103 0.1191253006824706
0005f0 26 5f 08 df a1 33 bf 3f 40 fa c6 a4 37 c7 b5 bf
       0.12188159651884387 -0.08507106564409472
000600 9f 02 97 54 ba 05 de bf 61 ac 6f 78 50 12 da bf
       -0.4690996004174312 -0.4073678184638024
000610 84 04 3f 4d 11 52 d0 3f 48 48 89 29 49 21 d6 bf
       0.2550090078694398 -0.34578160339618025
000620 f7 9e 34 26 e7 ea d7 bf 15 0f 40 58 cb cf e0 bf
       -0.3737123368359642 -0.5253655170094783
000630 75 22 15 32 70 e0 cc bf 26 84 6f 67 05 59 e9 bf
       -0.22559931226193766 -0.7921168346621286
000640 8f 70 64 39 2a 96 f2 bf 6d 7b 20 a7 96 85 cb 3f
       -1.1616613618744258 0.21501429710857725
000650 55 bf 35 33 14 9f e7 3f d4 d9 6a ae 3c 4b d1 bf
       0.7381688118166304 -0.27021710427234535
000660 d2 26 b4 ec c8 ac f1 bf c1 55 45 e1 f2 5e ea 3f
       -1.104683804153343 0.8240904235669221
000670 61 24 4c e0 4d ad 03 40 f2 f8 c0 6e d7 c4 f8 3f
       2.459621193240807 1.5480570150680788
000680 f3 43 9a 3d 6b 28 e1 bf 06 be 0c 3c eb 3a fe bf
       -0.5361839488197105 -1.889384493417198
000690 ab 5a e1 90 76 76 d8 3f c4 f6 f9 88 a1 93 dc bf
       0.38223041676011843 -0.446510680929219
0006a0 cd f0 14 68 a1 7e c3 bf 77 f8 d2 e6 5f 4f d6 bf
       -0.15230195600623234 -0.34859464208046326
0006b0 de dd 23 2e f3 87 e2 3f 7c 80 a8 43 0d 49 c7 bf
       0.5790954495595846 -0.18191686442969857
0006c0 f1 3f 21 91 ec 48 d4 3f 5e 2e 52 ba 28 30 be 3f
       0.31695093319740325 0.11792234944203403
0006d0 e8 a0 dd 59 fe 40 cd 3f 24 dc 0a 59 6a 3e 9d 3f
       0.22854594600654043 0.02855840843650638
0006e0 3b 67 94 b7 94 57 ec 3f 5a e5 45 bc d3 a5 d4 bf
       0.8856910310307521 -0.3226212824443643
0006f0 f0 8c b1 11 e6 14 cc bf 80 a8 17 fe 03 5b f0 bf
       -0.2193877779383011 -1.0222206044659572
000700 25 68 44 9d ba 32 f6 bf 15 08 92 7d ae 15 dc 3f
       -1.3873850005388786 0.43882334006059526
000710 56 bc 83 fd 82 cf e5 bf 75 a6 f4 91 b8 60 b8 bf
       -0.6815810157257924 -0.09522584498759008
000720 8c c1 6f b0 bc d6 e0 bf e3 ed 6e 78 91 44 d7 bf
       -0.5262130208994207 -0.3635600734812369
000730 a0 14 5d e0 ab 66 f3 3f 43 38 2a 8d 53 3e c1 bf
       1.2125662578776328 -0.13471454994982154
000740 34 5c 96 fb c3 db eb bf 69 c7 2c ae 24 a3 e3 3f
       -0.8705768503012963 0.613664951501261
000750 14 cb f9 d9 24 d0 ef bf 61 8f 2c b8 eb 50 e7 bf
       -0.994158197149178 -0.7286280247831024
000760 fe 7e 96 26 a7 e7 00 c0 9a ae 4f b8 ef d0 da bf
       -2.1131117834737543 -0.41900246619364057
000770 4e aa 55 0b c5 d9 dd bf 87 3c 3d f1 37 f8 c5 3f
       -0.4664166079225297 0.17163752822168396
000780 d4 de 21 cb a6 9e fd 3f eb 67 51 39 d0 4c d4 3f
       1.8512332854133335 0.3171883163209929
000790 dc c9 b2 16 b0 5a e2 3f fe a4 92 55 f0 2d ee 3f
       0.5735702937438947 0.9431077643722856
0007a0 84 d4 56 c2 07 0a a2 3f 45 68 1d d8 80 b6 e6 3f
       0.035232775185627424 0.7097782345765685
0007b0 3c 71 cb 03 ef b9 9f 3f 94 c5 83 23 dd 9f e3 bf
       0.030982718092546366 -0.6132646268508091
0007c0 5e 70 7d 33 33 0f ee 3f f4 79 e3 a6 fa 87 85 3f
       0.9393554692901593 0.010513265817675845
0007d0 07 c6 b1 c4 f4 9f e2 3f 87 4f b0 49 1b fd d7 bf
       0.5820258943260236 -0.3748234004608481
0007e0 c6 d8 86 04 d2 38 c6 bf 39 96 55 c4 fc eb f4 3f
       -0.17360902043373566 1.3076141042050848
0007f0 cc e6 7b 3e cd 0f e6 3f 26 d9 dd 97 01 c9 d2 bf
       0.6894289226904333 -0.29351844626161705
